…
/home/zhangtianhao/workspace/PaddleSpeech/tools/venv/lib/python3.7/site-packages/paddle/fluid/dygraph/layers.py:1492: UserWarning: Skip loading for masked_spec_embed. masked_spec_embed is not found in the provided dict.
  warnings.warn(("Skip loading for {}. ".format(key) + str(err)))
2022-09-01 08:37:35.572 | INFO     | paddlespeech.s2t.exps.wav2vec2.model:setup_model:259 - Wav2vec2ASR(
  (wav2vec2): Wav2Vec2Model(
    (feature_extractor): Wav2Vec2FeatureEncoder(
      (conv_layers): LayerList(
        (0): Wav2Vec2LayerNormConvLayer(
          (conv): Conv1D(1, 512, kernel_size=[10], stride=[5], data_format=NCL)
          (layer_norm): LayerNorm(normalized_shape=[512], epsilon=1e-05)
          (activation): GELUActivation()
        )
        (1): Wav2Vec2LayerNormConvLayer(
          (conv): Conv1D(512, 512, kernel_size=[3], stride=[2], data_format=NCL)
          (layer_norm): LayerNorm(normalized_shape=[512], epsilon=1e-05)
          (activation): GELUActivation()
        )
        (2): Wav2Vec2LayerNormConvLayer(
          (conv): Conv1D(512, 512, kernel_size=[3], stride=[2], data_format=NCL)
          (layer_norm): LayerNorm(normalized_shape=[512], epsilon=1e-05)
          (activation): GELUActivation()
        )
        (3): Wav2Vec2LayerNormConvLayer(
          (conv): Conv1D(512, 512, kernel_size=[3], stride=[2], data_format=NCL)
          (layer_norm): LayerNorm(normalized_shape=[512], epsilon=1e-05)
          (activation): GELUActivation()
        )
        (4): Wav2Vec2LayerNormConvLayer(
          (conv): Conv1D(512, 512, kernel_size=[3], stride=[2], data_format=NCL)
          (layer_norm): LayerNorm(normalized_shape=[512], epsilon=1e-05)
          (activation): GELUActivation()
        )
        (5): Wav2Vec2LayerNormConvLayer(
          (conv): Conv1D(512, 512, kernel_size=[2], stride=[2], data_format=NCL)
          (layer_norm): LayerNorm(normalized_shape=[512], epsilon=1e-05)
          (activation): GELUActivation()
        )
        (6): Wav2Vec2LayerNormConvLayer(
          (conv): Conv1D(512, 512, kernel_size=[2], stride=[2], data_format=NCL)
          (layer_norm): LayerNorm(normalized_shape=[512], epsilon=1e-05)
          (activation): GELUActivation()
        )
      )
    )
    (feature_projection): Wav2Vec2FeatureProjection(
      (layer_norm): LayerNorm(normalized_shape=[512], epsilon=1e-05)
      (projection): Linear(in_features=512, out_features=1024, dtype=float32)
      (dropout): Dropout(p=0.1, axis=None, mode=upscale_in_train)
    )
    (encoder): Wav2Vec2EncoderStableLayerNorm(
      (pos_conv_embed): Wav2Vec2PositionalConvEmbedding(
        (conv): Conv1D(1024, 1024, kernel_size=[128], padding=64, groups=16, data_format=NCL)
        (padding): Wav2Vec2SamePadLayer()
        (activation): GELUActivation()
      )
      (layer_norm): LayerNorm(normalized_shape=[1024], epsilon=1e-05)
      (dropout): Dropout(p=0.1, axis=None, mode=upscale_in_train)
      (layers): LayerList(
        (0): Wav2Vec2EncoderLayerStableLayerNorm(
          (attention): Wav2Vec2Attention(
            (k_proj): Linear(in_features=1024, out_features=1024, dtype=float32)
            (v_proj): Linear(in_features=1024, out_features=1024, dtype=float32)
            (q_proj): Linear(in_features=1024, out_features=1024, dtype=float32)
            (out_proj): Linear(in_features=1024, out_features=1024, dtype=float32)
          )
          (dropout): Dropout(p=0.1, axis=None, mode=upscale_in_train)
          (layer_norm): LayerNorm(normalized_shape=[1024], epsilon=1e-05)
          (feed_forward): Wav2Vec2FeedForward(
            (intermediate_dropout): Dropout(p=0.1, axis=None, mode=upscale_in_train)
            (intermediate_dense): Linear(in_features=1024, out_features=4096, dtype=float32)
            (intermediate_act_fn): GELUActivation()
            (output_dense): Linear(in_features=4096, out_features=1024, dtype=float32)
            (output_dropout): Dropout(p=0.1, axis=None, mode=upscale_in_train)
          )
          (final_layer_norm): LayerNorm(normalized_shape=[1024], epsilon=1e-05)
        )
        (1): Wav2Vec2EncoderLayerStableLayerNorm(
          (attention): Wav2Vec2Attention(
            (k_proj): Linear(in_features=1024, out_features=1024, dtype=float32)
            (v_proj): Linear(in_features=1024, out_features=1024, dtype=float32)
            (q_proj): Linear(in_features=1024, out_features=1024, dtype=float32)
            (out_proj): Linear(in_features=1024, out_features=1024, dtype=float32)
          )
          (dropout): Dropout(p=0.1, axis=None, mode=upscale_in_train)
          (layer_norm): LayerNorm(normalized_shape=[1024], epsilon=1e-05)
          (feed_forward): Wav2Vec2FeedForward(
            (intermediate_dropout): Dropout(p=0.1, axis=None, mode=upscale_in_train)
            (intermediate_dense): Linear(in_features=1024, out_features=4096, dtype=float32)
            (intermediate_act_fn): GELUActivation()
            (output_dense): Linear(in_features=4096, out_features=1024, dtype=float32)
            (output_dropout): Dropout(p=0.1, axis=None, mode=upscale_in_train)
          )
          (final_layer_norm): LayerNorm(normalized_shape=[1024], epsilon=1e-05)
        )
        (2): Wav2Vec2EncoderLayerStableLayerNorm(
          (attention): Wav2Vec2Attention(
            (k_proj): Linear(in_features=1024, out_features=1024, dtype=float32)
            (v_proj): Linear(in_features=1024, out_features=1024, dtype=float32)
            (q_proj): Linear(in_features=1024, out_features=1024, dtype=float32)
            (out_proj): Linear(in_features=1024, out_features=1024, dtype=float32)
          )
          (dropout): Dropout(p=0.1, axis=None, mode=upscale_in_train)
          (layer_norm): LayerNorm(normalized_shape=[1024], epsilon=1e-05)
          (feed_forward): Wav2Vec2FeedForward(
            (intermediate_dropout): Dropout(p=0.1, axis=None, mode=upscale_in_train)
            (intermediate_dense): Linear(in_features=1024, out_features=4096, dtype=float32)
            (intermediate_act_fn): GELUActivation()
            (output_dense): Linear(in_features=4096, out_features=1024, dtype=float32)
            (output_dropout): Dropout(p=0.1, axis=None, mode=upscale_in_train)
          )
          (final_layer_norm): LayerNorm(normalized_shape=[1024], epsilon=1e-05)
        )
        (3): Wav2Vec2EncoderLayerStableLayerNorm(
          (attention): Wav2Vec2Attention(
            (k_proj): Linear(in_features=1024, out_features=1024, dtype=float32)
            (v_proj): Linear(in_features=1024, out_features=1024, dtype=float32)
            (q_proj): Linear(in_features=1024, out_features=1024, dtype=float32)
            (out_proj): Linear(in_features=1024, out_features=1024, dtype=float32)
          )
          (dropout): Dropout(p=0.1, axis=None, mode=upscale_in_train)
          (layer_norm): LayerNorm(normalized_shape=[1024], epsilon=1e-05)
          (feed_forward): Wav2Vec2FeedForward(
            (intermediate_dropout): Dropout(p=0.1, axis=None, mode=upscale_in_train)
            (intermediate_dense): Linear(in_features=1024, out_features=4096, dtype=float32)
            (intermediate_act_fn): GELUActivation()
            (output_dense): Linear(in_features=4096, out_features=1024, dtype=float32)
            (output_dropout): Dropout(p=0.1, axis=None, mode=upscale_in_train)
          )
          (final_layer_norm): LayerNorm(normalized_shape=[1024], epsilon=1e-05)
        )
        (4): Wav2Vec2EncoderLayerStableLayerNorm(
          (attention): Wav2Vec2Attention(
            (k_proj): Linear(in_features=1024, out_features=1024, dtype=float32)
            (v_proj): Linear(in_features=1024, out_features=1024, dtype=float32)
            (q_proj): Linear(in_features=1024, out_features=1024, dtype=float32)
            (out_proj): Linear(in_features=1024, out_features=1024, dtype=float32)
          )
          (dropout): Dropout(p=0.1, axis=None, mode=upscale_in_train)
          (layer_norm): LayerNorm(normalized_shape=[1024], epsilon=1e-05)
          (feed_forward): Wav2Vec2FeedForward(
            (intermediate_dropout): Dropout(p=0.1, axis=None, mode=upscale_in_train)
            (intermediate_dense): Linear(in_features=1024, out_features=4096, dtype=float32)
            (intermediate_act_fn): GELUActivation()
            (output_dense): Linear(in_features=4096, out_features=1024, dtype=float32)
            (output_dropout): Dropout(p=0.1, axis=None, mode=upscale_in_train)
          )
          (final_layer_norm): LayerNorm(normalized_shape=[1024], epsilon=1e-05)
        )
        (5): Wav2Vec2EncoderLayerStableLayerNorm(
          (attention): Wav2Vec2Attention(
            (k_proj): Linear(in_features=1024, out_features=1024, dtype=float32)
            (v_proj): Linear(in_features=1024, out_features=1024, dtype=float32)
            (q_proj): Linear(in_features=1024, out_features=1024, dtype=float32)
            (out_proj): Linear(in_features=1024, out_features=1024, dtype=float32)
          )
          (dropout): Dropout(p=0.1, axis=None, mode=upscale_in_train)
          (layer_norm): LayerNorm(normalized_shape=[1024], epsilon=1e-05)
          (feed_forward): Wav2Vec2FeedForward(
            (intermediate_dropout): Dropout(p=0.1, axis=None, mode=upscale_in_train)
            (intermediate_dense): Linear(in_features=1024, out_features=4096, dtype=float32)
            (intermediate_act_fn): GELUActivation()
            (output_dense): Linear(in_features=4096, out_features=1024, dtype=float32)
            (output_dropout): Dropout(p=0.1, axis=None, mode=upscale_in_train)
          )
          (final_layer_norm): LayerNorm(normalized_shape=[1024], epsilon=1e-05)
        )
        (6): Wav2Vec2EncoderLayerStableLayerNorm(
          (attention): Wav2Vec2Attention(
            (k_proj): Linear(in_features=1024, out_features=1024, dtype=float32)
            (v_proj): Linear(in_features=1024, out_features=1024, dtype=float32)
            (q_proj): Linear(in_features=1024, out_features=1024, dtype=float32)
            (out_proj): Linear(in_features=1024, out_features=1024, dtype=float32)
          )
          (dropout): Dropout(p=0.1, axis=None, mode=upscale_in_train)
          (layer_norm): LayerNorm(normalized_shape=[1024], epsilon=1e-05)
          (feed_forward): Wav2Vec2FeedForward(
            (intermediate_dropout): Dropout(p=0.1, axis=None, mode=upscale_in_train)
            (intermediate_dense): Linear(in_features=1024, out_features=4096, dtype=float32)
            (intermediate_act_fn): GELUActivation()
            (output_dense): Linear(in_features=4096, out_features=1024, dtype=float32)
            (output_dropout): Dropout(p=0.1, axis=None, mode=upscale_in_train)
          )
          (final_layer_norm): LayerNorm(normalized_shape=[1024], epsilon=1e-05)
        )
        (7): Wav2Vec2EncoderLayerStableLayerNorm(
          (attention): Wav2Vec2Attention(
            (k_proj): Linear(in_features=1024, out_features=1024, dtype=float32)
            (v_proj): Linear(in_features=1024, out_features=1024, dtype=float32)
            (q_proj): Linear(in_features=1024, out_features=1024, dtype=float32)
            (out_proj): Linear(in_features=1024, out_features=1024, dtype=float32)
          )
          (dropout): Dropout(p=0.1, axis=None, mode=upscale_in_train)
          (layer_norm): LayerNorm(normalized_shape=[1024], epsilon=1e-05)
          (feed_forward): Wav2Vec2FeedForward(
            (intermediate_dropout): Dropout(p=0.1, axis=None, mode=upscale_in_train)
            (intermediate_dense): Linear(in_features=1024, out_features=4096, dtype=float32)
            (intermediate_act_fn): GELUActivation()
            (output_dense): Linear(in_features=4096, out_features=1024, dtype=float32)
            (output_dropout): Dropout(p=0.1, axis=None, mode=upscale_in_train)
          )
          (final_layer_norm): LayerNorm(normalized_shape=[1024], epsilon=1e-05)
        )
        (8): Wav2Vec2EncoderLayerStableLayerNorm(
          (attention): Wav2Vec2Attention(
            (k_proj): Linear(in_features=1024, out_features=1024, dtype=float32)
            (v_proj): Linear(in_features=1024, out_features=1024, dtype=float32)
            (q_proj): Linear(in_features=1024, out_features=1024, dtype=float32)
            (out_proj): Linear(in_features=1024, out_features=1024, dtype=float32)
          )
          (dropout): Dropout(p=0.1, axis=None, mode=upscale_in_train)
          (layer_norm): LayerNorm(normalized_shape=[1024], epsilon=1e-05)
          (feed_forward): Wav2Vec2FeedForward(
            (intermediate_dropout): Dropout(p=0.1, axis=None, mode=upscale_in_train)
            (intermediate_dense): Linear(in_features=1024, out_features=4096, dtype=float32)
            (intermediate_act_fn): GELUActivation()
            (output_dense): Linear(in_features=4096, out_features=1024, dtype=float32)
            (output_dropout): Dropout(p=0.1, axis=None, mode=upscale_in_train)
          )
          (final_layer_norm): LayerNorm(normalized_shape=[1024], epsilon=1e-05)
        )
        (9): Wav2Vec2EncoderLayerStableLayerNorm(
          (attention): Wav2Vec2Attention(
            (k_proj): Linear(in_features=1024, out_features=1024, dtype=float32)
            (v_proj): Linear(in_features=1024, out_features=1024, dtype=float32)
            (q_proj): Linear(in_features=1024, out_features=1024, dtype=float32)
            (out_proj): Linear(in_features=1024, out_features=1024, dtype=float32)
          )
          (dropout): Dropout(p=0.1, axis=None, mode=upscale_in_train)
          (layer_norm): LayerNorm(normalized_shape=[1024], epsilon=1e-05)
          (feed_forward): Wav2Vec2FeedForward(
            (intermediate_dropout): Dropout(p=0.1, axis=None, mode=upscale_in_train)
            (intermediate_dense): Linear(in_features=1024, out_features=4096, dtype=float32)
            (intermediate_act_fn): GELUActivation()
            (output_dense): Linear(in_features=4096, out_features=1024, dtype=float32)
            (output_dropout): Dropout(p=0.1, axis=None, mode=upscale_in_train)
          )
          (final_layer_norm): LayerNorm(normalized_shape=[1024], epsilon=1e-05)
        )
        (10): Wav2Vec2EncoderLayerStableLayerNorm(
          (attention): Wav2Vec2Attention(
            (k_proj): Linear(in_features=1024, out_features=1024, dtype=float32)
            (v_proj): Linear(in_features=1024, out_features=1024, dtype=float32)
            (q_proj): Linear(in_features=1024, out_features=1024, dtype=float32)
            (out_proj): Linear(in_features=1024, out_features=1024, dtype=float32)
          )
          (dropout): Dropout(p=0.1, axis=None, mode=upscale_in_train)
          (layer_norm): LayerNorm(normalized_shape=[1024], epsilon=1e-05)
          (feed_forward): Wav2Vec2FeedForward(
            (intermediate_dropout): Dropout(p=0.1, axis=None, mode=upscale_in_train)
            (intermediate_dense): Linear(in_features=1024, out_features=4096, dtype=float32)
            (intermediate_act_fn): GELUActivation()
            (output_dense): Linear(in_features=4096, out_features=1024, dtype=float32)
            (output_dropout): Dropout(p=0.1, axis=None, mode=upscale_in_train)
          )
          (final_layer_norm): LayerNorm(normalized_shape=[1024], epsilon=1e-05)
        )
        (11): Wav2Vec2EncoderLayerStableLayerNorm(
          (attention): Wav2Vec2Attention(
            (k_proj): Linear(in_features=1024, out_features=1024, dtype=float32)
            (v_proj): Linear(in_features=1024, out_features=1024, dtype=float32)
            (q_proj): Linear(in_features=1024, out_features=1024, dtype=float32)
            (out_proj): Linear(in_features=1024, out_features=1024, dtype=float32)
          )
          (dropout): Dropout(p=0.1, axis=None, mode=upscale_in_train)
          (layer_norm): LayerNorm(normalized_shape=[1024], epsilon=1e-05)
          (feed_forward): Wav2Vec2FeedForward(
            (intermediate_dropout): Dropout(p=0.1, axis=None, mode=upscale_in_train)
            (intermediate_dense): Linear(in_features=1024, out_features=4096, dtype=float32)
            (intermediate_act_fn): GELUActivation()
            (output_dense): Linear(in_features=4096, out_features=1024, dtype=float32)
            (output_dropout): Dropout(p=0.1, axis=None, mode=upscale_in_train)
          )
          (final_layer_norm): LayerNorm(normalized_shape=[1024], epsilon=1e-05)
        )
        (12): Wav2Vec2EncoderLayerStableLayerNorm(
          (attention): Wav2Vec2Attention(
            (k_proj): Linear(in_features=1024, out_features=1024, dtype=float32)
            (v_proj): Linear(in_features=1024, out_features=1024, dtype=float32)
            (q_proj): Linear(in_features=1024, out_features=1024, dtype=float32)
            (out_proj): Linear(in_features=1024, out_features=1024, dtype=float32)
          )
          (dropout): Dropout(p=0.1, axis=None, mode=upscale_in_train)
          (layer_norm): LayerNorm(normalized_shape=[1024], epsilon=1e-05)
          (feed_forward): Wav2Vec2FeedForward(
            (intermediate_dropout): Dropout(p=0.1, axis=None, mode=upscale_in_train)
            (intermediate_dense): Linear(in_features=1024, out_features=4096, dtype=float32)
            (intermediate_act_fn): GELUActivation()
            (output_dense): Linear(in_features=4096, out_features=1024, dtype=float32)
            (output_dropout): Dropout(p=0.1, axis=None, mode=upscale_in_train)
          )
          (final_layer_norm): LayerNorm(normalized_shape=[1024], epsilon=1e-05)
        )
        (13): Wav2Vec2EncoderLayerStableLayerNorm(
          (attention): Wav2Vec2Attention(
            (k_proj): Linear(in_features=1024, out_features=1024, dtype=float32)
            (v_proj): Linear(in_features=1024, out_features=1024, dtype=float32)
            (q_proj): Linear(in_features=1024, out_features=1024, dtype=float32)
            (out_proj): Linear(in_features=1024, out_features=1024, dtype=float32)
          )
          (dropout): Dropout(p=0.1, axis=None, mode=upscale_in_train)
          (layer_norm): LayerNorm(normalized_shape=[1024], epsilon=1e-05)
          (feed_forward): Wav2Vec2FeedForward(
            (intermediate_dropout): Dropout(p=0.1, axis=None, mode=upscale_in_train)
            (intermediate_dense): Linear(in_features=1024, out_features=4096, dtype=float32)
            (intermediate_act_fn): GELUActivation()
            (output_dense): Linear(in_features=4096, out_features=1024, dtype=float32)
            (output_dropout): Dropout(p=0.1, axis=None, mode=upscale_in_train)
          )
          (final_layer_norm): LayerNorm(normalized_shape=[1024], epsilon=1e-05)
        )
        (14): Wav2Vec2EncoderLayerStableLayerNorm(
          (attention): Wav2Vec2Attention(
            (k_proj): Linear(in_features=1024, out_features=1024, dtype=float32)
            (v_proj): Linear(in_features=1024, out_features=1024, dtype=float32)
            (q_proj): Linear(in_features=1024, out_features=1024, dtype=float32)
            (out_proj): Linear(in_features=1024, out_features=1024, dtype=float32)
          )
          (dropout): Dropout(p=0.1, axis=None, mode=upscale_in_train)
          (layer_norm): LayerNorm(normalized_shape=[1024], epsilon=1e-05)
          (feed_forward): Wav2Vec2FeedForward(
            (intermediate_dropout): Dropout(p=0.1, axis=None, mode=upscale_in_train)
            (intermediate_dense): Linear(in_features=1024, out_features=4096, dtype=float32)
            (intermediate_act_fn): GELUActivation()
            (output_dense): Linear(in_features=4096, out_features=1024, dtype=float32)
            (output_dropout): Dropout(p=0.1, axis=None, mode=upscale_in_train)
          )
          (final_layer_norm): LayerNorm(normalized_shape=[1024], epsilon=1e-05)
        )
        (15): Wav2Vec2EncoderLayerStableLayerNorm(
          (attention): Wav2Vec2Attention(
            (k_proj): Linear(in_features=1024, out_features=1024, dtype=float32)
            (v_proj): Linear(in_features=1024, out_features=1024, dtype=float32)
            (q_proj): Linear(in_features=1024, out_features=1024, dtype=float32)
            (out_proj): Linear(in_features=1024, out_features=1024, dtype=float32)
          )
          (dropout): Dropout(p=0.1, axis=None, mode=upscale_in_train)
          (layer_norm): LayerNorm(normalized_shape=[1024], epsilon=1e-05)
          (feed_forward): Wav2Vec2FeedForward(
            (intermediate_dropout): Dropout(p=0.1, axis=None, mode=upscale_in_train)
            (intermediate_dense): Linear(in_features=1024, out_features=4096, dtype=float32)
            (intermediate_act_fn): GELUActivation()
            (output_dense): Linear(in_features=4096, out_features=1024, dtype=float32)
            (output_dropout): Dropout(p=0.1, axis=None, mode=upscale_in_train)
          )
          (final_layer_norm): LayerNorm(normalized_shape=[1024], epsilon=1e-05)
        )
        (16): Wav2Vec2EncoderLayerStableLayerNorm(
          (attention): Wav2Vec2Attention(
            (k_proj): Linear(in_features=1024, out_features=1024, dtype=float32)
            (v_proj): Linear(in_features=1024, out_features=1024, dtype=float32)
            (q_proj): Linear(in_features=1024, out_features=1024, dtype=float32)
            (out_proj): Linear(in_features=1024, out_features=1024, dtype=float32)
          )
          (dropout): Dropout(p=0.1, axis=None, mode=upscale_in_train)
          (layer_norm): LayerNorm(normalized_shape=[1024], epsilon=1e-05)
          (feed_forward): Wav2Vec2FeedForward(
            (intermediate_dropout): Dropout(p=0.1, axis=None, mode=upscale_in_train)
            (intermediate_dense): Linear(in_features=1024, out_features=4096, dtype=float32)
            (intermediate_act_fn): GELUActivation()
            (output_dense): Linear(in_features=4096, out_features=1024, dtype=float32)
            (output_dropout): Dropout(p=0.1, axis=None, mode=upscale_in_train)
          )
          (final_layer_norm): LayerNorm(normalized_shape=[1024], epsilon=1e-05)
        )
        (17): Wav2Vec2EncoderLayerStableLayerNorm(
          (attention): Wav2Vec2Attention(
            (k_proj): Linear(in_features=1024, out_features=1024, dtype=float32)
            (v_proj): Linear(in_features=1024, out_features=1024, dtype=float32)
            (q_proj): Linear(in_features=1024, out_features=1024, dtype=float32)
            (out_proj): Linear(in_features=1024, out_features=1024, dtype=float32)
          )
          (dropout): Dropout(p=0.1, axis=None, mode=upscale_in_train)
          (layer_norm): LayerNorm(normalized_shape=[1024], epsilon=1e-05)
          (feed_forward): Wav2Vec2FeedForward(
            (intermediate_dropout): Dropout(p=0.1, axis=None, mode=upscale_in_train)
            (intermediate_dense): Linear(in_features=1024, out_features=4096, dtype=float32)
            (intermediate_act_fn): GELUActivation()
            (output_dense): Linear(in_features=4096, out_features=1024, dtype=float32)
            (output_dropout): Dropout(p=0.1, axis=None, mode=upscale_in_train)
          )
          (final_layer_norm): LayerNorm(normalized_shape=[1024], epsilon=1e-05)
        )
        (18): Wav2Vec2EncoderLayerStableLayerNorm(
          (attention): Wav2Vec2Attention(
            (k_proj): Linear(in_features=1024, out_features=1024, dtype=float32)
            (v_proj): Linear(in_features=1024, out_features=1024, dtype=float32)
            (q_proj): Linear(in_features=1024, out_features=1024, dtype=float32)
            (out_proj): Linear(in_features=1024, out_features=1024, dtype=float32)
          )
          (dropout): Dropout(p=0.1, axis=None, mode=upscale_in_train)
          (layer_norm): LayerNorm(normalized_shape=[1024], epsilon=1e-05)
          (feed_forward): Wav2Vec2FeedForward(
            (intermediate_dropout): Dropout(p=0.1, axis=None, mode=upscale_in_train)
            (intermediate_dense): Linear(in_features=1024, out_features=4096, dtype=float32)
            (intermediate_act_fn): GELUActivation()
            (output_dense): Linear(in_features=4096, out_features=1024, dtype=float32)
            (output_dropout): Dropout(p=0.1, axis=None, mode=upscale_in_train)
          )
          (final_layer_norm): LayerNorm(normalized_shape=[1024], epsilon=1e-05)
        )
        (19): Wav2Vec2EncoderLayerStableLayerNorm(
          (attention): Wav2Vec2Attention(
            (k_proj): Linear(in_features=1024, out_features=1024, dtype=float32)
            (v_proj): Linear(in_features=1024, out_features=1024, dtype=float32)
            (q_proj): Linear(in_features=1024, out_features=1024, dtype=float32)
            (out_proj): Linear(in_features=1024, out_features=1024, dtype=float32)
          )
          (dropout): Dropout(p=0.1, axis=None, mode=upscale_in_train)
          (layer_norm): LayerNorm(normalized_shape=[1024], epsilon=1e-05)
          (feed_forward): Wav2Vec2FeedForward(
            (intermediate_dropout): Dropout(p=0.1, axis=None, mode=upscale_in_train)
            (intermediate_dense): Linear(in_features=1024, out_features=4096, dtype=float32)
            (intermediate_act_fn): GELUActivation()
            (output_dense): Linear(in_features=4096, out_features=1024, dtype=float32)
            (output_dropout): Dropout(p=0.1, axis=None, mode=upscale_in_train)
          )
          (final_layer_norm): LayerNorm(normalized_shape=[1024], epsilon=1e-05)
        )
        (20): Wav2Vec2EncoderLayerStableLayerNorm(
          (attention): Wav2Vec2Attention(
            (k_proj): Linear(in_features=1024, out_features=1024, dtype=float32)
            (v_proj): Linear(in_features=1024, out_features=1024, dtype=float32)
            (q_proj): Linear(in_features=1024, out_features=1024, dtype=float32)
            (out_proj): Linear(in_features=1024, out_features=1024, dtype=float32)
          )
          (dropout): Dropout(p=0.1, axis=None, mode=upscale_in_train)
          (layer_norm): LayerNorm(normalized_shape=[1024], epsilon=1e-05)
          (feed_forward): Wav2Vec2FeedForward(
            (intermediate_dropout): Dropout(p=0.1, axis=None, mode=upscale_in_train)
            (intermediate_dense): Linear(in_features=1024, out_features=4096, dtype=float32)
            (intermediate_act_fn): GELUActivation()
            (output_dense): Linear(in_features=4096, out_features=1024, dtype=float32)
            (output_dropout): Dropout(p=0.1, axis=None, mode=upscale_in_train)
          )
          (final_layer_norm): LayerNorm(normalized_shape=[1024], epsilon=1e-05)
        )
        (21): Wav2Vec2EncoderLayerStableLayerNorm(
          (attention): Wav2Vec2Attention(
            (k_proj): Linear(in_features=1024, out_features=1024, dtype=float32)
            (v_proj): Linear(in_features=1024, out_features=1024, dtype=float32)
            (q_proj): Linear(in_features=1024, out_features=1024, dtype=float32)
            (out_proj): Linear(in_features=1024, out_features=1024, dtype=float32)
          )
          (dropout): Dropout(p=0.1, axis=None, mode=upscale_in_train)
          (layer_norm): LayerNorm(normalized_shape=[1024], epsilon=1e-05)
          (feed_forward): Wav2Vec2FeedForward(
            (intermediate_dropout): Dropout(p=0.1, axis=None, mode=upscale_in_train)
            (intermediate_dense): Linear(in_features=1024, out_features=4096, dtype=float32)
            (intermediate_act_fn): GELUActivation()
            (output_dense): Linear(in_features=4096, out_features=1024, dtype=float32)
            (output_dropout): Dropout(p=0.1, axis=None, mode=upscale_in_train)
          )
          (final_layer_norm): LayerNorm(normalized_shape=[1024], epsilon=1e-05)
        )
        (22): Wav2Vec2EncoderLayerStableLayerNorm(
          (attention): Wav2Vec2Attention(
            (k_proj): Linear(in_features=1024, out_features=1024, dtype=float32)
            (v_proj): Linear(in_features=1024, out_features=1024, dtype=float32)
            (q_proj): Linear(in_features=1024, out_features=1024, dtype=float32)
            (out_proj): Linear(in_features=1024, out_features=1024, dtype=float32)
          )
          (dropout): Dropout(p=0.1, axis=None, mode=upscale_in_train)
          (layer_norm): LayerNorm(normalized_shape=[1024], epsilon=1e-05)
          (feed_forward): Wav2Vec2FeedForward(
            (intermediate_dropout): Dropout(p=0.1, axis=None, mode=upscale_in_train)
            (intermediate_dense): Linear(in_features=1024, out_features=4096, dtype=float32)
            (intermediate_act_fn): GELUActivation()
            (output_dense): Linear(in_features=4096, out_features=1024, dtype=float32)
            (output_dropout): Dropout(p=0.1, axis=None, mode=upscale_in_train)
          )
          (final_layer_norm): LayerNorm(normalized_shape=[1024], epsilon=1e-05)
        )
        (23): Wav2Vec2EncoderLayerStableLayerNorm(
          (attention): Wav2Vec2Attention(
            (k_proj): Linear(in_features=1024, out_features=1024, dtype=float32)
            (v_proj): Linear(in_features=1024, out_features=1024, dtype=float32)
            (q_proj): Linear(in_features=1024, out_features=1024, dtype=float32)
            (out_proj): Linear(in_features=1024, out_features=1024, dtype=float32)
          )
          (dropout): Dropout(p=0.1, axis=None, mode=upscale_in_train)
          (layer_norm): LayerNorm(normalized_shape=[1024], epsilon=1e-05)
          (feed_forward): Wav2Vec2FeedForward(
            (intermediate_dropout): Dropout(p=0.1, axis=None, mode=upscale_in_train)
            (intermediate_dense): Linear(in_features=1024, out_features=4096, dtype=float32)
            (intermediate_act_fn): GELUActivation()
            (output_dense): Linear(in_features=4096, out_features=1024, dtype=float32)
            (output_dropout): Dropout(p=0.1, axis=None, mode=upscale_in_train)
          )
          (final_layer_norm): LayerNorm(normalized_shape=[1024], epsilon=1e-05)
        )
      )
    )
  )
  (enc): VanillaNN(
    (linear): Linear(
      (w): Linear(in_features=1024, out_features=1024, dtype=float32)
    )
    (act): LeakyReLU(negative_slope=0.01)
    (linear_0): Linear(
      (w): Linear(in_features=1024, out_features=1024, dtype=float32)
    )
    (act_0): LeakyReLU(negative_slope=0.01)
  )
  (ctc): CTCDecoderBase(
    (dropout): Dropout(p=0.0, axis=None, mode=upscale_in_train)
    (ctc_lo): Linear(in_features=1024, out_features=31, dtype=float32)
    (criterion): CTCLoss(
      (loss): CTCLoss()
    )
  )
)
2022-09-01 08:37:35.573 | INFO     | paddlespeech.s2t.utils.layer_tools:print_params:57 - wav2vec2.masked_spec_embed | [1024] | 1024 | True
2022-09-01 08:37:35.574 | INFO     | paddlespeech.s2t.utils.layer_tools:print_params:57 - wav2vec2.feature_extractor.conv_layers.0.conv.weight | [512, 1, 10] | 5120 | True
…
